(40000, 28, 28)
(40000,)
X shape (40000, 28, 28, 1)
P shape (40000, 10)
_________________________________________________________________
Layer (type)                 Output Shape              Param #   
=================================================================
conv2d_1 (Conv2D)            (None, 28, 28, 20)        520       
_________________________________________________________________
max_pooling2d_1 (MaxPooling2 (None, 14, 14, 20)        0         
_________________________________________________________________
conv2d_2 (Conv2D)            (None, 14, 14, 50)        25050     
_________________________________________________________________
max_pooling2d_2 (MaxPooling2 (None, 7, 7, 50)          0         
_________________________________________________________________
flatten_1 (Flatten)          (None, 2450)              0         
_________________________________________________________________
dense_1 (Dense)              (None, 500)               1225500   
_________________________________________________________________
dense_2 (Dense)              (None, 10)                5010      
=================================================================
Total params: 1,256,080
Trainable params: 1,256,080
Non-trainable params: 0
_________________________________________________________________
elapsed time 3.0 min

minimum validation loss index 18 of 100
cross-entropy
        training = 0.0067671122451429255
      validation = 0.21047694594458508
accuracy rate
        training = 0.9982812572270632
…
